…
_(self, param_dict): super(MetaNet, self).__init__() self.param_num = len(param_dict) self.hidden = nn.Linear(1920, 128*self.param_num) self.fc_dict = {} for i, (name, params) in enumerate(param_dict.items()): self.fc_dict[name] = i setattr(self, &#39;fc{}&#39;.format(i+1), nn.Linear(128, params)) def forward(self, mean_std_features): hidden = F.relu(self.hidden(mean_std_features)) filters = {} for name, i in self.fc_dict.items(): fc = getattr(self, &#39;fc{}&#39;.format(i+1)) filters[name] = fc(hidden[:,i*128:(i+1)*128]) return filters   \u76f4\u63a5 print \u6a21\u578b\uff1a\nMetaNet( (hidden): Linear(in_features=1920, out_features=1792, bias=True) (fc1): Linear(in_features=128, out_features=18496, bias=True) (fc2): Linear(in_features=128, out_features=73856, bias=True) (fc3): Linear(in_features=128, out_features=147584, bias=True) (fc4): Linear(in_features=128, out_features=147584, bias=True) (fc5): Linear(in_features=128, out_features=147584, bias=True) (fc6): Linear(in_features=128, out_features=147584, bias=True) (fc7): Linear(in_features=128, out_features=147584, bias=True) (fc8): Linear(in_features=128, out_features=147584, bias=True) (fc9): Linear(in_features=128, out_features=147584, bias=True) (fc10): Linear(in_features=128, out_features=147584, bias=True) (fc11): Linear(in_features=128, out_features=147584, bias=True) (fc12): Linear(in_features=128, out_features=147584, bias=True) (fc13): Linear(in_features=128, out_features=73792, bias=True) (fc14): Linear(in_features=128, out_features=18464, bias=True) ) \u6570\u636e  There are about 120k images in MS- COCO trainval set and about 80k images in the test set of WikiArt.\n \u8981\u60f3\u8bad\u7ec3\u8fd9\u4e48\u5927\u7684\u6a21\u578b\uff0c\u90a3\u4e48\u5c31\u5fc5\u987b\u8981\u6d77\u91cf\u7684\u98ce\u683c\u56fe\u50cf\u548c\u5185\u5bb9\u56fe\u50cf\u3002\u539f\u8bba\u6587\u4f9d\u65e7\u9009\u62e9\u4e86 COC
…
c2 = nn.Linear(120, 84) self.fc3 = nn.Linear(84, 10) def forward(self, x): # Max pooling over a (2, 2) window x = F.max_pool2d(F.relu(self.conv1(x)), (2, 2)) # If the size is a square you can only specify a single number x = F.max_pool2d(F.relu(self.conv2(x)), 2) x = x.view(-1, self.num_flat_features(x)) x = F.relu(self.fc1(x)) x = F.relu(self.fc2(x)) x = self.fc3(x) return x def num_flat_features(self, x): size = x.size()[1:] # all dimensions except the batch dimension num_features = 1 for s in size: num_features *= s return num_features net = Net() print(net) &#39;&#39;&#39; Out: Net( (conv1): Conv2d(1, 6, kernel_size=(3, 3), stride=(1, 1)) (conv2): Conv2d(6, 16, kernel_size=(3, 3), stride=(1, 1)) (fc1): Linear(in_features=576, out_features=120, bias=True) (fc2): Linear(in_features=120, out_features=84, bias=True) (fc3): Linear(in_features=84, out_features=10, bias=True) ) &#39;&#39;&#39;    You just have to define the forward function, and the backward function (where gradients are computed) is automatically defined for you using autograd. You can use any of the Tensor operations in the forward function. The learnable parameters of a model are returned by net.parameters():  1 2 3 4 5 6 7  params = list(net.parameters())
…
